{"keras_version": "2.1.5", "class_name": "Sequential", "backend": "tensorflow", "config": [{"class_name": "Conv2D", "config": {"kernel_constraint": null, "filters": 32, "trainable": true, "use_bias": true, "batch_input_shape": [null, 128, 128, 1], "bias_initializer": {"class_name": "Zeros", "config": {}}, "kernel_regularizer": null, "strides": [1, 1], "dtype": "float32", "data_format": "channels_last", "kernel_size": [7, 7], "padding": "valid", "bias_constraint": null, "name": "conv2d_11", "activity_regularizer": null, "dilation_rate": [1, 1], "activation": "relu", "bias_regularizer": null, "kernel_initializer": {"class_name": "VarianceScaling", "config": {"scale": 1.0, "mode": "fan_avg", "distribution": "uniform", "seed": null}}}}, {"class_name": "MaxPooling2D", "config": {"strides": [2, 2], "trainable": true, "name": "max_pooling2d_11", "data_format": "channels_last", "pool_size": [2, 2], "padding": "valid"}}, {"class_name": "Conv2D", "config": {"kernel_constraint": null, "filters": 32, "trainable": true, "use_bias": true, "data_format": "channels_last", "bias_initializer": {"class_name": "Zeros", "config": {}}, "kernel_regularizer": null, "bias_constraint": null, "kernel_size": [5, 5], "padding": "valid", "strides": [1, 1], "name": "conv2d_12", "activity_regularizer": null, "dilation_rate": [1, 1], "activation": "relu", "bias_regularizer": null, "kernel_initializer": {"class_name": "VarianceScaling", "config": {"scale": 1.0, "mode": "fan_avg", "distribution": "uniform", "seed": null}}}}, {"class_name": "MaxPooling2D", "config": {"strides": [2, 2], "trainable": true, "name": "max_pooling2d_12", "data_format": "channels_last", "pool_size": [2, 2], "padding": "valid"}}, {"class_name": "Conv2D", "config": {"kernel_constraint": null, "filters": 32, "trainable": true, "use_bias": true, "data_format": "channels_last", "bias_initializer": {"class_name": "Zeros", "config": {}}, "kernel_regularizer": null, "bias_constraint": null, "kernel_size": [5, 5], "padding": "valid", "strides": [1, 1], "name": "conv2d_13", "activity_regularizer": null, "dilation_rate": [1, 1], "activation": "relu", "bias_regularizer": null, "kernel_initializer": {"class_name": "VarianceScaling", "config": {"scale": 1.0, "mode": "fan_avg", "distribution": "uniform", "seed": null}}}}, {"class_name": "MaxPooling2D", "config": {"strides": [2, 2], "trainable": true, "name": "max_pooling2d_13", "data_format": "channels_last", "pool_size": [2, 2], "padding": "valid"}}, {"class_name": "Conv2D", "config": {"kernel_constraint": null, "filters": 32, "trainable": true, "use_bias": true, "data_format": "channels_last", "bias_initializer": {"class_name": "Zeros", "config": {}}, "kernel_regularizer": null, "bias_constraint": null, "kernel_size": [3, 3], "padding": "valid", "strides": [1, 1], "name": "conv2d_14", "activity_regularizer": null, "dilation_rate": [1, 1], "activation": "relu", "bias_regularizer": null, "kernel_initializer": {"class_name": "VarianceScaling", "config": {"scale": 1.0, "mode": "fan_avg", "distribution": "uniform", "seed": null}}}}, {"class_name": "MaxPooling2D", "config": {"strides": [2, 2], "trainable": true, "name": "max_pooling2d_14", "data_format": "channels_last", "pool_size": [2, 2], "padding": "valid"}}, {"class_name": "Conv2D", "config": {"kernel_constraint": null, "filters": 32, "trainable": true, "use_bias": true, "data_format": "channels_last", "bias_initializer": {"class_name": "Zeros", "config": {}}, "kernel_regularizer": null, "bias_constraint": null, "kernel_size": [3, 3], "padding": "valid", "strides": [1, 1], "name": "conv2d_15", "activity_regularizer": null, "dilation_rate": [1, 1], "activation": "relu", "bias_regularizer": null, "kernel_initializer": {"class_name": "VarianceScaling", "config": {"scale": 1.0, "mode": "fan_avg", "distribution": "uniform", "seed": null}}}}, {"class_name": "MaxPooling2D", "config": {"strides": [2, 2], "trainable": true, "name": "max_pooling2d_15", "data_format": "channels_last", "pool_size": [2, 2], "padding": "valid"}}, {"class_name": "Flatten", "config": {"name": "flatten_3", "trainable": true}}, {"class_name": "Dense", "config": {"kernel_constraint": null, "kernel_regularizer": null, "trainable": true, "use_bias": true, "bias_constraint": null, "bias_initializer": {"class_name": "Zeros", "config": {}}, "activity_regularizer": null, "name": "dense_7", "units": 256, "activation": "relu", "bias_regularizer": null, "kernel_initializer": {"class_name": "VarianceScaling", "config": {"scale": 1.0, "mode": "fan_avg", "distribution": "uniform", "seed": null}}}}, {"class_name": "Dense", "config": {"kernel_constraint": null, "kernel_regularizer": null, "trainable": true, "use_bias": true, "bias_constraint": null, "bias_initializer": {"class_name": "Zeros", "config": {}}, "activity_regularizer": null, "name": "dense_8", "units": 128, "activation": "relu", "bias_regularizer": null, "kernel_initializer": {"class_name": "VarianceScaling", "config": {"scale": 1.0, "mode": "fan_avg", "distribution": "uniform", "seed": null}}}}, {"class_name": "Dense", "config": {"kernel_constraint": null, "kernel_regularizer": null, "trainable": true, "use_bias": true, "bias_constraint": null, "bias_initializer": {"class_name": "Zeros", "config": {}}, "activity_regularizer": null, "name": "dense_9", "units": 6, "activation": "softmax", "bias_regularizer": null, "kernel_initializer": {"class_name": "RandomNormal", "config": {"stddev": 0.05, "mean": 0.0, "seed": null}}}}]}